Model: "full_model"
┏━━━━━━━━━━━━━━━━━━━━━━━━━━━━━━━━━━━━━━┳━━━━━━━━━━━━━━━━━━━━━━━━━━━━━┳━━━━━━━━━━━━━━━━━┓
┃ Layer (type)                         ┃ Output Shape                ┃         Param # ┃
┡━━━━━━━━━━━━━━━━━━━━━━━━━━━━━━━━━━━━━━╇━━━━━━━━━━━━━━━━━━━━━━━━━━━━━╇━━━━━━━━━━━━━━━━━┩
│ input (InputLayer)                   │ (None, 64)                  │               0 │
├──────────────────────────────────────┼─────────────────────────────┼─────────────────┤
│ stim_model (Functional)              │ (None, 64)                  │          49,600 │
├──────────────────────────────────────┼─────────────────────────────┼─────────────────┤
│ LNL_model (Functional)               │ (None, 64)                  │          33,088 │
└──────────────────────────────────────┴─────────────────────────────┴─────────────────┘
 Total params: 181,890 (710.51 KB)
 Trainable params: 49,600 (193.75 KB)
 Non-trainable params: 33,088 (129.25 KB)
 Optimizer params: 99,202 (387.51 KB)

Model: "stim_model"
┏━━━━━━━━━━━━━━━━━━━━━━━━━━━━━━━━━━━━━━┳━━━━━━━━━━━━━━━━━━━━━━━━━━━━━┳━━━━━━━━━━━━━━━━━┓
┃ Layer (type)                         ┃ Output Shape                ┃         Param # ┃
┡━━━━━━━━━━━━━━━━━━━━━━━━━━━━━━━━━━━━━━╇━━━━━━━━━━━━━━━━━━━━━━━━━━━━━╇━━━━━━━━━━━━━━━━━┩
│ input (InputLayer)                   │ (None, 64)                  │               0 │
├──────────────────────────────────────┼─────────────────────────────┼─────────────────┤
│ dense_1 (Dense)                      │ (None, 128)                 │           8,320 │
├──────────────────────────────────────┼─────────────────────────────┼─────────────────┤
│ dense_2 (Dense)                      │ (None, 128)                 │          16,512 │
├──────────────────────────────────────┼─────────────────────────────┼─────────────────┤
│ dense_3 (Dense)                      │ (None, 128)                 │          16,512 │
├──────────────────────────────────────┼─────────────────────────────┼─────────────────┤
│ stim_layer (Dense)                   │ (None, 64)                  │           8,256 │
└──────────────────────────────────────┴─────────────────────────────┴─────────────────┘
 Total params: 49,600 (193.75 KB)
 Trainable params: 49,600 (193.75 KB)
 Non-trainable params: 0 (0.00 B)

Model: "LNL_model"
┏━━━━━━━━━━━━━━━━━━━━━━━━━━━━━━━━━━━━━━┳━━━━━━━━━━━━━━━━━━━━━━━━━━━━━┳━━━━━━━━━━━━━━━━━┓
┃ Layer (type)                         ┃ Output Shape                ┃         Param # ┃
┡━━━━━━━━━━━━━━━━━━━━━━━━━━━━━━━━━━━━━━╇━━━━━━━━━━━━━━━━━━━━━━━━━━━━━╇━━━━━━━━━━━━━━━━━┩
│ input (InputLayer)                   │ (None, 64)                  │               0 │
├──────────────────────────────────────┼─────────────────────────────┼─────────────────┤
│ dense_1 (Dense)                      │ (None, 128)                 │           8,320 │
├──────────────────────────────────────┼─────────────────────────────┼─────────────────┤
│ dense_2 (Dense)                      │ (None, 128)                 │          16,512 │
├──────────────────────────────────────┼─────────────────────────────┼─────────────────┤
│ dense_3 (Dense)                      │ (None, 64)                  │           8,256 │
└──────────────────────────────────────┴─────────────────────────────┴─────────────────┘
 Total params: 99,266 (387.76 KB)
 Trainable params: 0 (0.00 B)
 Non-trainable params: 33,088 (129.25 KB)
 Optimizer params: 66,178 (258.51 KB)

Model: "full_model"
┏━━━━━━━━━━━━━━━━━━━━━━━━━━━━━━━━━━━━━━┳━━━━━━━━━━━━━━━━━━━━━━━━━━━━━┳━━━━━━━━━━━━━━━━━┓
┃ Layer (type)                         ┃ Output Shape                ┃         Param # ┃
┡━━━━━━━━━━━━━━━━━━━━━━━━━━━━━━━━━━━━━━╇━━━━━━━━━━━━━━━━━━━━━━━━━━━━━╇━━━━━━━━━━━━━━━━━┩
│ input (InputLayer)                   │ (None, 64)                  │               0 │
├──────────────────────────────────────┼─────────────────────────────┼─────────────────┤
│ stim_model (Functional)              │ (None, 64)                  │          49,600 │
├──────────────────────────────────────┼─────────────────────────────┼─────────────────┤
│ LNL_model (Functional)               │ (None, 64)                  │          33,088 │
└──────────────────────────────────────┴─────────────────────────────┴─────────────────┘
 Total params: 181,890 (710.51 KB)
 Trainable params: 49,600 (193.75 KB)
 Non-trainable params: 33,088 (129.25 KB)
 Optimizer params: 99,202 (387.51 KB)

Model: "stim_model"
┏━━━━━━━━━━━━━━━━━━━━━━━━━━━━━━━━━━━━━━┳━━━━━━━━━━━━━━━━━━━━━━━━━━━━━┳━━━━━━━━━━━━━━━━━┓
┃ Layer (type)                         ┃ Output Shape                ┃         Param # ┃
┡━━━━━━━━━━━━━━━━━━━━━━━━━━━━━━━━━━━━━━╇━━━━━━━━━━━━━━━━━━━━━━━━━━━━━╇━━━━━━━━━━━━━━━━━┩
│ input (InputLayer)                   │ (None, 64)                  │               0 │
├──────────────────────────────────────┼─────────────────────────────┼─────────────────┤
│ dense_1 (Dense)                      │ (None, 128)                 │           8,320 │
├──────────────────────────────────────┼─────────────────────────────┼─────────────────┤
│ dense_2 (Dense)                      │ (None, 128)                 │          16,512 │
├──────────────────────────────────────┼─────────────────────────────┼─────────────────┤
│ dense_3 (Dense)                      │ (None, 128)                 │          16,512 │
├──────────────────────────────────────┼─────────────────────────────┼─────────────────┤
│ stim_layer (Dense)                   │ (None, 64)                  │           8,256 │
└──────────────────────────────────────┴─────────────────────────────┴─────────────────┘
 Total params: 49,600 (193.75 KB)
 Trainable params: 49,600 (193.75 KB)
 Non-trainable params: 0 (0.00 B)

Model: "LNL_model"
┏━━━━━━━━━━━━━━━━━━━━━━━━━━━━━━━━━━━━━━┳━━━━━━━━━━━━━━━━━━━━━━━━━━━━━┳━━━━━━━━━━━━━━━━━┓
┃ Layer (type)                         ┃ Output Shape                ┃         Param # ┃
┡━━━━━━━━━━━━━━━━━━━━━━━━━━━━━━━━━━━━━━╇━━━━━━━━━━━━━━━━━━━━━━━━━━━━━╇━━━━━━━━━━━━━━━━━┩
│ input (InputLayer)                   │ (None, 64)                  │               0 │
├──────────────────────────────────────┼─────────────────────────────┼─────────────────┤
│ dense_1 (Dense)                      │ (None, 128)                 │           8,320 │
├──────────────────────────────────────┼─────────────────────────────┼─────────────────┤
│ dense_2 (Dense)                      │ (None, 128)                 │          16,512 │
├──────────────────────────────────────┼─────────────────────────────┼─────────────────┤
│ dense_3 (Dense)                      │ (None, 64)                  │           8,256 │
└──────────────────────────────────────┴─────────────────────────────┴─────────────────┘
 Total params: 99,266 (387.76 KB)
 Trainable params: 0 (0.00 B)
 Non-trainable params: 33,088 (129.25 KB)
 Optimizer params: 66,178 (258.51 KB)

Model: "full_model"
┏━━━━━━━━━━━━━━━━━━━━━━━━━━━━━━━━━━━━━━┳━━━━━━━━━━━━━━━━━━━━━━━━━━━━━┳━━━━━━━━━━━━━━━━━┓
┃ Layer (type)                         ┃ Output Shape                ┃         Param # ┃
┡━━━━━━━━━━━━━━━━━━━━━━━━━━━━━━━━━━━━━━╇━━━━━━━━━━━━━━━━━━━━━━━━━━━━━╇━━━━━━━━━━━━━━━━━┩
│ input (InputLayer)                   │ (None, 64)                  │               0 │
├──────────────────────────────────────┼─────────────────────────────┼─────────────────┤
│ stim_model (Functional)              │ (None, 64)                  │          49,600 │
├──────────────────────────────────────┼─────────────────────────────┼─────────────────┤
│ LNL_model (Functional)               │ (None, 64)                  │          33,088 │
└──────────────────────────────────────┴─────────────────────────────┴─────────────────┘
 Total params: 181,890 (710.51 KB)
 Trainable params: 49,600 (193.75 KB)
 Non-trainable params: 33,088 (129.25 KB)
 Optimizer params: 99,202 (387.51 KB)

Model: "stim_model"
┏━━━━━━━━━━━━━━━━━━━━━━━━━━━━━━━━━━━━━━┳━━━━━━━━━━━━━━━━━━━━━━━━━━━━━┳━━━━━━━━━━━━━━━━━┓
┃ Layer (type)                         ┃ Output Shape                ┃         Param # ┃
┡━━━━━━━━━━━━━━━━━━━━━━━━━━━━━━━━━━━━━━╇━━━━━━━━━━━━━━━━━━━━━━━━━━━━━╇━━━━━━━━━━━━━━━━━┩
│ input (InputLayer)                   │ (None, 64)                  │               0 │
├──────────────────────────────────────┼─────────────────────────────┼─────────────────┤
│ dense_1 (Dense)                      │ (None, 128)                 │           8,320 │
├──────────────────────────────────────┼─────────────────────────────┼─────────────────┤
│ dense_2 (Dense)                      │ (None, 128)                 │          16,512 │
├──────────────────────────────────────┼─────────────────────────────┼─────────────────┤
│ dense_3 (Dense)                      │ (None, 128)                 │          16,512 │
├──────────────────────────────────────┼─────────────────────────────┼─────────────────┤
│ stim_layer (Dense)                   │ (None, 64)                  │           8,256 │
└──────────────────────────────────────┴─────────────────────────────┴─────────────────┘
 Total params: 49,600 (193.75 KB)
 Trainable params: 49,600 (193.75 KB)
 Non-trainable params: 0 (0.00 B)

Model: "LNL_model"
┏━━━━━━━━━━━━━━━━━━━━━━━━━━━━━━━━━━━━━━┳━━━━━━━━━━━━━━━━━━━━━━━━━━━━━┳━━━━━━━━━━━━━━━━━┓
┃ Layer (type)                         ┃ Output Shape                ┃         Param # ┃
┡━━━━━━━━━━━━━━━━━━━━━━━━━━━━━━━━━━━━━━╇━━━━━━━━━━━━━━━━━━━━━━━━━━━━━╇━━━━━━━━━━━━━━━━━┩
│ input (InputLayer)                   │ (None, 64)                  │               0 │
├──────────────────────────────────────┼─────────────────────────────┼─────────────────┤
│ dense_1 (Dense)                      │ (None, 128)                 │           8,320 │
├──────────────────────────────────────┼─────────────────────────────┼─────────────────┤
│ dense_2 (Dense)                      │ (None, 128)                 │          16,512 │
├──────────────────────────────────────┼─────────────────────────────┼─────────────────┤
│ dense_3 (Dense)                      │ (None, 64)                  │           8,256 │
└──────────────────────────────────────┴─────────────────────────────┴─────────────────┘
 Total params: 99,266 (387.76 KB)
 Trainable params: 0 (0.00 B)
 Non-trainable params: 33,088 (129.25 KB)
 Optimizer params: 66,178 (258.51 KB)

Model: "full_model"
┏━━━━━━━━━━━━━━━━━━━━━━━━━━━━━━━━━━━━━━┳━━━━━━━━━━━━━━━━━━━━━━━━━━━━━┳━━━━━━━━━━━━━━━━━┓
┃ Layer (type)                         ┃ Output Shape                ┃         Param # ┃
┡━━━━━━━━━━━━━━━━━━━━━━━━━━━━━━━━━━━━━━╇━━━━━━━━━━━━━━━━━━━━━━━━━━━━━╇━━━━━━━━━━━━━━━━━┩
│ input (InputLayer)                   │ (None, 64)                  │               0 │
├──────────────────────────────────────┼─────────────────────────────┼─────────────────┤
│ stim_model (Functional)              │ (None, 64)                  │          49,600 │
├──────────────────────────────────────┼─────────────────────────────┼─────────────────┤
│ LNL_model (Functional)               │ (None, 64)                  │          33,088 │
└──────────────────────────────────────┴─────────────────────────────┴─────────────────┘
 Total params: 181,890 (710.51 KB)
 Trainable params: 49,600 (193.75 KB)
 Non-trainable params: 33,088 (129.25 KB)
 Optimizer params: 99,202 (387.51 KB)

Model: "stim_model"
┏━━━━━━━━━━━━━━━━━━━━━━━━━━━━━━━━━━━━━━┳━━━━━━━━━━━━━━━━━━━━━━━━━━━━━┳━━━━━━━━━━━━━━━━━┓
┃ Layer (type)                         ┃ Output Shape                ┃         Param # ┃
┡━━━━━━━━━━━━━━━━━━━━━━━━━━━━━━━━━━━━━━╇━━━━━━━━━━━━━━━━━━━━━━━━━━━━━╇━━━━━━━━━━━━━━━━━┩
│ input (InputLayer)                   │ (None, 64)                  │               0 │
├──────────────────────────────────────┼─────────────────────────────┼─────────────────┤
│ dense_1 (Dense)                      │ (None, 128)                 │           8,320 │
├──────────────────────────────────────┼─────────────────────────────┼─────────────────┤
│ dense_2 (Dense)                      │ (None, 128)                 │          16,512 │
├──────────────────────────────────────┼─────────────────────────────┼─────────────────┤
│ dense_3 (Dense)                      │ (None, 128)                 │          16,512 │
├──────────────────────────────────────┼─────────────────────────────┼─────────────────┤
│ stim_layer (Dense)                   │ (None, 64)                  │           8,256 │
└──────────────────────────────────────┴─────────────────────────────┴─────────────────┘
 Total params: 49,600 (193.75 KB)
 Trainable params: 49,600 (193.75 KB)
 Non-trainable params: 0 (0.00 B)

Model: "LNL_model"
┏━━━━━━━━━━━━━━━━━━━━━━━━━━━━━━━━━━━━━━┳━━━━━━━━━━━━━━━━━━━━━━━━━━━━━┳━━━━━━━━━━━━━━━━━┓
┃ Layer (type)                         ┃ Output Shape                ┃         Param # ┃
┡━━━━━━━━━━━━━━━━━━━━━━━━━━━━━━━━━━━━━━╇━━━━━━━━━━━━━━━━━━━━━━━━━━━━━╇━━━━━━━━━━━━━━━━━┩
│ input (InputLayer)                   │ (None, 64)                  │               0 │
├──────────────────────────────────────┼─────────────────────────────┼─────────────────┤
│ dense_1 (Dense)                      │ (None, 128)                 │           8,320 │
├──────────────────────────────────────┼─────────────────────────────┼─────────────────┤
│ dense_2 (Dense)                      │ (None, 128)                 │          16,512 │
├──────────────────────────────────────┼─────────────────────────────┼─────────────────┤
│ dense_3 (Dense)                      │ (None, 64)                  │           8,256 │
└──────────────────────────────────────┴─────────────────────────────┴─────────────────┘
 Total params: 99,266 (387.76 KB)
 Trainable params: 0 (0.00 B)
 Non-trainable params: 33,088 (129.25 KB)
 Optimizer params: 66,178 (258.51 KB)

Model: "full_model"
┏━━━━━━━━━━━━━━━━━━━━━━━━━━━━━━━━━━━━━━┳━━━━━━━━━━━━━━━━━━━━━━━━━━━━━┳━━━━━━━━━━━━━━━━━┓
┃ Layer (type)                         ┃ Output Shape                ┃         Param # ┃
┡━━━━━━━━━━━━━━━━━━━━━━━━━━━━━━━━━━━━━━╇━━━━━━━━━━━━━━━━━━━━━━━━━━━━━╇━━━━━━━━━━━━━━━━━┩
│ input (InputLayer)                   │ (None, 64)                  │               0 │
├──────────────────────────────────────┼─────────────────────────────┼─────────────────┤
│ stim_model (Functional)              │ (None, 64)                  │          49,600 │
├──────────────────────────────────────┼─────────────────────────────┼─────────────────┤
│ LNL_model (Functional)               │ (None, 64)                  │          33,088 │
└──────────────────────────────────────┴─────────────────────────────┴─────────────────┘
 Total params: 181,890 (710.51 KB)
 Trainable params: 49,600 (193.75 KB)
 Non-trainable params: 33,088 (129.25 KB)
 Optimizer params: 99,202 (387.51 KB)

Model: "stim_model"
┏━━━━━━━━━━━━━━━━━━━━━━━━━━━━━━━━━━━━━━┳━━━━━━━━━━━━━━━━━━━━━━━━━━━━━┳━━━━━━━━━━━━━━━━━┓
┃ Layer (type)                         ┃ Output Shape                ┃         Param # ┃
┡━━━━━━━━━━━━━━━━━━━━━━━━━━━━━━━━━━━━━━╇━━━━━━━━━━━━━━━━━━━━━━━━━━━━━╇━━━━━━━━━━━━━━━━━┩
│ input (InputLayer)                   │ (None, 64)                  │               0 │
├──────────────────────────────────────┼─────────────────────────────┼─────────────────┤
│ dense_1 (Dense)                      │ (None, 128)                 │           8,320 │
├──────────────────────────────────────┼─────────────────────────────┼─────────────────┤
│ dense_2 (Dense)                      │ (None, 128)                 │          16,512 │
├──────────────────────────────────────┼─────────────────────────────┼─────────────────┤
│ dense_3 (Dense)                      │ (None, 128)                 │          16,512 │
├──────────────────────────────────────┼─────────────────────────────┼─────────────────┤
│ stim_layer (Dense)                   │ (None, 64)                  │           8,256 │
└──────────────────────────────────────┴─────────────────────────────┴─────────────────┘
 Total params: 49,600 (193.75 KB)
 Trainable params: 49,600 (193.75 KB)
 Non-trainable params: 0 (0.00 B)

Model: "LNL_model"
┏━━━━━━━━━━━━━━━━━━━━━━━━━━━━━━━━━━━━━━┳━━━━━━━━━━━━━━━━━━━━━━━━━━━━━┳━━━━━━━━━━━━━━━━━┓
┃ Layer (type)                         ┃ Output Shape                ┃         Param # ┃
┡━━━━━━━━━━━━━━━━━━━━━━━━━━━━━━━━━━━━━━╇━━━━━━━━━━━━━━━━━━━━━━━━━━━━━╇━━━━━━━━━━━━━━━━━┩
│ input (InputLayer)                   │ (None, 64)                  │               0 │
├──────────────────────────────────────┼─────────────────────────────┼─────────────────┤
│ dense_1 (Dense)                      │ (None, 128)                 │           8,320 │
├──────────────────────────────────────┼─────────────────────────────┼─────────────────┤
│ dense_2 (Dense)                      │ (None, 128)                 │          16,512 │
├──────────────────────────────────────┼─────────────────────────────┼─────────────────┤
│ dense_3 (Dense)                      │ (None, 64)                  │           8,256 │
└──────────────────────────────────────┴─────────────────────────────┴─────────────────┘
 Total params: 99,266 (387.76 KB)
 Trainable params: 0 (0.00 B)
 Non-trainable params: 33,088 (129.25 KB)
 Optimizer params: 66,178 (258.51 KB)

Model: "full_model"
┏━━━━━━━━━━━━━━━━━━━━━━━━━━━━━━━━━━━━━━┳━━━━━━━━━━━━━━━━━━━━━━━━━━━━━┳━━━━━━━━━━━━━━━━━┓
┃ Layer (type)                         ┃ Output Shape                ┃         Param # ┃
┡━━━━━━━━━━━━━━━━━━━━━━━━━━━━━━━━━━━━━━╇━━━━━━━━━━━━━━━━━━━━━━━━━━━━━╇━━━━━━━━━━━━━━━━━┩
│ input (InputLayer)                   │ (None, 64)                  │               0 │
├──────────────────────────────────────┼─────────────────────────────┼─────────────────┤
│ stim_model (Functional)              │ (None, 64)                  │          49,600 │
├──────────────────────────────────────┼─────────────────────────────┼─────────────────┤
│ LNL_model (Functional)               │ (None, 64)                  │          33,088 │
└──────────────────────────────────────┴─────────────────────────────┴─────────────────┘
 Total params: 181,890 (710.51 KB)
 Trainable params: 49,600 (193.75 KB)
 Non-trainable params: 33,088 (129.25 KB)
 Optimizer params: 99,202 (387.51 KB)

Model: "stim_model"
┏━━━━━━━━━━━━━━━━━━━━━━━━━━━━━━━━━━━━━━┳━━━━━━━━━━━━━━━━━━━━━━━━━━━━━┳━━━━━━━━━━━━━━━━━┓
┃ Layer (type)                         ┃ Output Shape                ┃         Param # ┃
┡━━━━━━━━━━━━━━━━━━━━━━━━━━━━━━━━━━━━━━╇━━━━━━━━━━━━━━━━━━━━━━━━━━━━━╇━━━━━━━━━━━━━━━━━┩
│ input (InputLayer)                   │ (None, 64)                  │               0 │
├──────────────────────────────────────┼─────────────────────────────┼─────────────────┤
│ dense_1 (Dense)                      │ (None, 128)                 │           8,320 │
├──────────────────────────────────────┼─────────────────────────────┼─────────────────┤
│ dense_2 (Dense)                      │ (None, 128)                 │          16,512 │
├──────────────────────────────────────┼─────────────────────────────┼─────────────────┤
│ dense_3 (Dense)                      │ (None, 128)                 │          16,512 │
├──────────────────────────────────────┼─────────────────────────────┼─────────────────┤
│ stim_layer (Dense)                   │ (None, 64)                  │           8,256 │
└──────────────────────────────────────┴─────────────────────────────┴─────────────────┘
 Total params: 49,600 (193.75 KB)
 Trainable params: 49,600 (193.75 KB)
 Non-trainable params: 0 (0.00 B)

Model: "LNL_model"
┏━━━━━━━━━━━━━━━━━━━━━━━━━━━━━━━━━━━━━━┳━━━━━━━━━━━━━━━━━━━━━━━━━━━━━┳━━━━━━━━━━━━━━━━━┓
┃ Layer (type)                         ┃ Output Shape                ┃         Param # ┃
┡━━━━━━━━━━━━━━━━━━━━━━━━━━━━━━━━━━━━━━╇━━━━━━━━━━━━━━━━━━━━━━━━━━━━━╇━━━━━━━━━━━━━━━━━┩
│ input (InputLayer)                   │ (None, 64)                  │               0 │
├──────────────────────────────────────┼─────────────────────────────┼─────────────────┤
│ dense_1 (Dense)                      │ (None, 128)                 │           8,320 │
├──────────────────────────────────────┼─────────────────────────────┼─────────────────┤
│ dense_2 (Dense)                      │ (None, 128)                 │          16,512 │
├──────────────────────────────────────┼─────────────────────────────┼─────────────────┤
│ dense_3 (Dense)                      │ (None, 64)                  │           8,256 │
└──────────────────────────────────────┴─────────────────────────────┴─────────────────┘
 Total params: 99,266 (387.76 KB)
 Trainable params: 0 (0.00 B)
 Non-trainable params: 33,088 (129.25 KB)
 Optimizer params: 66,178 (258.51 KB)

Model: "full_model"
┏━━━━━━━━━━━━━━━━━━━━━━━━━━━━━━━━━━━━━━┳━━━━━━━━━━━━━━━━━━━━━━━━━━━━━┳━━━━━━━━━━━━━━━━━┓
┃ Layer (type)                         ┃ Output Shape                ┃         Param # ┃
┡━━━━━━━━━━━━━━━━━━━━━━━━━━━━━━━━━━━━━━╇━━━━━━━━━━━━━━━━━━━━━━━━━━━━━╇━━━━━━━━━━━━━━━━━┩
│ input (InputLayer)                   │ (None, 64)                  │               0 │
├──────────────────────────────────────┼─────────────────────────────┼─────────────────┤
│ stim_model (Functional)              │ (None, 64)                  │          49,600 │
├──────────────────────────────────────┼─────────────────────────────┼─────────────────┤
│ LNL_model (Functional)               │ (None, 64)                  │          33,088 │
└──────────────────────────────────────┴─────────────────────────────┴─────────────────┘
 Total params: 181,890 (710.51 KB)
 Trainable params: 49,600 (193.75 KB)
 Non-trainable params: 33,088 (129.25 KB)
 Optimizer params: 99,202 (387.51 KB)

Model: "stim_model"
┏━━━━━━━━━━━━━━━━━━━━━━━━━━━━━━━━━━━━━━┳━━━━━━━━━━━━━━━━━━━━━━━━━━━━━┳━━━━━━━━━━━━━━━━━┓
┃ Layer (type)                         ┃ Output Shape                ┃         Param # ┃
┡━━━━━━━━━━━━━━━━━━━━━━━━━━━━━━━━━━━━━━╇━━━━━━━━━━━━━━━━━━━━━━━━━━━━━╇━━━━━━━━━━━━━━━━━┩
│ input (InputLayer)                   │ (None, 64)                  │               0 │
├──────────────────────────────────────┼─────────────────────────────┼─────────────────┤
│ dense_1 (Dense)                      │ (None, 128)                 │           8,320 │
├──────────────────────────────────────┼─────────────────────────────┼─────────────────┤
│ dense_2 (Dense)                      │ (None, 128)                 │          16,512 │
├──────────────────────────────────────┼─────────────────────────────┼─────────────────┤
│ dense_3 (Dense)                      │ (None, 128)                 │          16,512 │
├──────────────────────────────────────┼─────────────────────────────┼─────────────────┤
│ stim_layer (Dense)                   │ (None, 64)                  │           8,256 │
└──────────────────────────────────────┴─────────────────────────────┴─────────────────┘
 Total params: 49,600 (193.75 KB)
 Trainable params: 49,600 (193.75 KB)
 Non-trainable params: 0 (0.00 B)

Model: "LNL_model"
┏━━━━━━━━━━━━━━━━━━━━━━━━━━━━━━━━━━━━━━┳━━━━━━━━━━━━━━━━━━━━━━━━━━━━━┳━━━━━━━━━━━━━━━━━┓
┃ Layer (type)                         ┃ Output Shape                ┃         Param # ┃
┡━━━━━━━━━━━━━━━━━━━━━━━━━━━━━━━━━━━━━━╇━━━━━━━━━━━━━━━━━━━━━━━━━━━━━╇━━━━━━━━━━━━━━━━━┩
│ input (InputLayer)                   │ (None, 64)                  │               0 │
├──────────────────────────────────────┼─────────────────────────────┼─────────────────┤
│ dense_1 (Dense)                      │ (None, 128)                 │           8,320 │
├──────────────────────────────────────┼─────────────────────────────┼─────────────────┤
│ dense_2 (Dense)                      │ (None, 128)                 │          16,512 │
├──────────────────────────────────────┼─────────────────────────────┼─────────────────┤
│ dense_3 (Dense)                      │ (None, 64)                  │           8,256 │
└──────────────────────────────────────┴─────────────────────────────┴─────────────────┘
 Total params: 99,266 (387.76 KB)
 Trainable params: 0 (0.00 B)
 Non-trainable params: 33,088 (129.25 KB)
 Optimizer params: 66,178 (258.51 KB)

Model: "full_model"
┏━━━━━━━━━━━━━━━━━━━━━━━━━━━━━━━━━━━━━━┳━━━━━━━━━━━━━━━━━━━━━━━━━━━━━┳━━━━━━━━━━━━━━━━━┓
┃ Layer (type)                         ┃ Output Shape                ┃         Param # ┃
┡━━━━━━━━━━━━━━━━━━━━━━━━━━━━━━━━━━━━━━╇━━━━━━━━━━━━━━━━━━━━━━━━━━━━━╇━━━━━━━━━━━━━━━━━┩
│ input (InputLayer)                   │ (None, 64)                  │               0 │
├──────────────────────────────────────┼─────────────────────────────┼─────────────────┤
│ stim_model (Functional)              │ (None, 64)                  │          49,600 │
├──────────────────────────────────────┼─────────────────────────────┼─────────────────┤
│ LNL_model (Functional)               │ (None, 64)                  │          33,088 │
└──────────────────────────────────────┴─────────────────────────────┴─────────────────┘
 Total params: 181,890 (710.51 KB)
 Trainable params: 49,600 (193.75 KB)
 Non-trainable params: 33,088 (129.25 KB)
 Optimizer params: 99,202 (387.51 KB)

Model: "stim_model"
┏━━━━━━━━━━━━━━━━━━━━━━━━━━━━━━━━━━━━━━┳━━━━━━━━━━━━━━━━━━━━━━━━━━━━━┳━━━━━━━━━━━━━━━━━┓
┃ Layer (type)                         ┃ Output Shape                ┃         Param # ┃
┡━━━━━━━━━━━━━━━━━━━━━━━━━━━━━━━━━━━━━━╇━━━━━━━━━━━━━━━━━━━━━━━━━━━━━╇━━━━━━━━━━━━━━━━━┩
│ input (InputLayer)                   │ (None, 64)                  │               0 │
├──────────────────────────────────────┼─────────────────────────────┼─────────────────┤
│ dense_1 (Dense)                      │ (None, 128)                 │           8,320 │
├──────────────────────────────────────┼─────────────────────────────┼─────────────────┤
│ dense_2 (Dense)                      │ (None, 128)                 │          16,512 │
├──────────────────────────────────────┼─────────────────────────────┼─────────────────┤
│ dense_3 (Dense)                      │ (None, 128)                 │          16,512 │
├──────────────────────────────────────┼─────────────────────────────┼─────────────────┤
│ stim_layer (Dense)                   │ (None, 64)                  │           8,256 │
└──────────────────────────────────────┴─────────────────────────────┴─────────────────┘
 Total params: 49,600 (193.75 KB)
 Trainable params: 49,600 (193.75 KB)
 Non-trainable params: 0 (0.00 B)

Model: "LNL_model"
┏━━━━━━━━━━━━━━━━━━━━━━━━━━━━━━━━━━━━━━┳━━━━━━━━━━━━━━━━━━━━━━━━━━━━━┳━━━━━━━━━━━━━━━━━┓
┃ Layer (type)                         ┃ Output Shape                ┃         Param # ┃
┡━━━━━━━━━━━━━━━━━━━━━━━━━━━━━━━━━━━━━━╇━━━━━━━━━━━━━━━━━━━━━━━━━━━━━╇━━━━━━━━━━━━━━━━━┩
│ input (InputLayer)                   │ (None, 64)                  │               0 │
├──────────────────────────────────────┼─────────────────────────────┼─────────────────┤
│ dense_1 (Dense)                      │ (None, 128)                 │           8,320 │
├──────────────────────────────────────┼─────────────────────────────┼─────────────────┤
│ dense_2 (Dense)                      │ (None, 128)                 │          16,512 │
├──────────────────────────────────────┼─────────────────────────────┼─────────────────┤
│ dense_3 (Dense)                      │ (None, 64)                  │           8,256 │
└──────────────────────────────────────┴─────────────────────────────┴─────────────────┘
 Total params: 99,266 (387.76 KB)
 Trainable params: 0 (0.00 B)
 Non-trainable params: 33,088 (129.25 KB)
 Optimizer params: 66,178 (258.51 KB)

Model: "full_model"
┏━━━━━━━━━━━━━━━━━━━━━━━━━━━━━━━━━━━━━━┳━━━━━━━━━━━━━━━━━━━━━━━━━━━━━┳━━━━━━━━━━━━━━━━━┓
┃ Layer (type)                         ┃ Output Shape                ┃         Param # ┃
┡━━━━━━━━━━━━━━━━━━━━━━━━━━━━━━━━━━━━━━╇━━━━━━━━━━━━━━━━━━━━━━━━━━━━━╇━━━━━━━━━━━━━━━━━┩
│ input (InputLayer)                   │ (None, 64)                  │               0 │
├──────────────────────────────────────┼─────────────────────────────┼─────────────────┤
│ stim_model (Functional)              │ (None, 64)                  │          49,600 │
├──────────────────────────────────────┼─────────────────────────────┼─────────────────┤
│ LNL_model (Functional)               │ (None, 64)                  │          33,088 │
└──────────────────────────────────────┴─────────────────────────────┴─────────────────┘
 Total params: 181,890 (710.51 KB)
 Trainable params: 49,600 (193.75 KB)
 Non-trainable params: 33,088 (129.25 KB)
 Optimizer params: 99,202 (387.51 KB)

Model: "stim_model"
┏━━━━━━━━━━━━━━━━━━━━━━━━━━━━━━━━━━━━━━┳━━━━━━━━━━━━━━━━━━━━━━━━━━━━━┳━━━━━━━━━━━━━━━━━┓
┃ Layer (type)                         ┃ Output Shape                ┃         Param # ┃
┡━━━━━━━━━━━━━━━━━━━━━━━━━━━━━━━━━━━━━━╇━━━━━━━━━━━━━━━━━━━━━━━━━━━━━╇━━━━━━━━━━━━━━━━━┩
│ input (InputLayer)                   │ (None, 64)                  │               0 │
├──────────────────────────────────────┼─────────────────────────────┼─────────────────┤
│ dense_1 (Dense)                      │ (None, 128)                 │           8,320 │
├──────────────────────────────────────┼─────────────────────────────┼─────────────────┤
│ dense_2 (Dense)                      │ (None, 128)                 │          16,512 │
├──────────────────────────────────────┼─────────────────────────────┼─────────────────┤
│ dense_3 (Dense)                      │ (None, 128)                 │          16,512 │
├──────────────────────────────────────┼─────────────────────────────┼─────────────────┤
│ stim_layer (Dense)                   │ (None, 64)                  │           8,256 │
└──────────────────────────────────────┴─────────────────────────────┴─────────────────┘
 Total params: 49,600 (193.75 KB)
 Trainable params: 49,600 (193.75 KB)
 Non-trainable params: 0 (0.00 B)

Model: "LNL_model"
┏━━━━━━━━━━━━━━━━━━━━━━━━━━━━━━━━━━━━━━┳━━━━━━━━━━━━━━━━━━━━━━━━━━━━━┳━━━━━━━━━━━━━━━━━┓
┃ Layer (type)                         ┃ Output Shape                ┃         Param # ┃
┡━━━━━━━━━━━━━━━━━━━━━━━━━━━━━━━━━━━━━━╇━━━━━━━━━━━━━━━━━━━━━━━━━━━━━╇━━━━━━━━━━━━━━━━━┩
│ input (InputLayer)                   │ (None, 64)                  │               0 │
├──────────────────────────────────────┼─────────────────────────────┼─────────────────┤
│ dense_1 (Dense)                      │ (None, 128)                 │           8,320 │
├──────────────────────────────────────┼─────────────────────────────┼─────────────────┤
│ dense_2 (Dense)                      │ (None, 128)                 │          16,512 │
├──────────────────────────────────────┼─────────────────────────────┼─────────────────┤
│ dense_3 (Dense)                      │ (None, 64)                  │           8,256 │
└──────────────────────────────────────┴─────────────────────────────┴─────────────────┘
 Total params: 99,266 (387.76 KB)
 Trainable params: 0 (0.00 B)
 Non-trainable params: 33,088 (129.25 KB)
 Optimizer params: 66,178 (258.51 KB)

Model: "full_model"
┏━━━━━━━━━━━━━━━━━━━━━━━━━━━━━━━━━━━━━━┳━━━━━━━━━━━━━━━━━━━━━━━━━━━━━┳━━━━━━━━━━━━━━━━━┓
┃ Layer (type)                         ┃ Output Shape                ┃         Param # ┃
┡━━━━━━━━━━━━━━━━━━━━━━━━━━━━━━━━━━━━━━╇━━━━━━━━━━━━━━━━━━━━━━━━━━━━━╇━━━━━━━━━━━━━━━━━┩
│ input (InputLayer)                   │ (None, 64)                  │               0 │
├──────────────────────────────────────┼─────────────────────────────┼─────────────────┤
│ stim_model (Functional)              │ (None, 64)                  │          49,600 │
├──────────────────────────────────────┼─────────────────────────────┼─────────────────┤
│ LNL_model (Functional)               │ (None, 64)                  │          33,088 │
└──────────────────────────────────────┴─────────────────────────────┴─────────────────┘
 Total params: 181,890 (710.51 KB)
 Trainable params: 49,600 (193.75 KB)
 Non-trainable params: 33,088 (129.25 KB)
 Optimizer params: 99,202 (387.51 KB)

Model: "stim_model"
┏━━━━━━━━━━━━━━━━━━━━━━━━━━━━━━━━━━━━━━┳━━━━━━━━━━━━━━━━━━━━━━━━━━━━━┳━━━━━━━━━━━━━━━━━┓
┃ Layer (type)                         ┃ Output Shape                ┃         Param # ┃
┡━━━━━━━━━━━━━━━━━━━━━━━━━━━━━━━━━━━━━━╇━━━━━━━━━━━━━━━━━━━━━━━━━━━━━╇━━━━━━━━━━━━━━━━━┩
│ input (InputLayer)                   │ (None, 64)                  │               0 │
├──────────────────────────────────────┼─────────────────────────────┼─────────────────┤
│ dense_1 (Dense)                      │ (None, 128)                 │           8,320 │
├──────────────────────────────────────┼─────────────────────────────┼─────────────────┤
│ dense_2 (Dense)                      │ (None, 128)                 │          16,512 │
├──────────────────────────────────────┼─────────────────────────────┼─────────────────┤
│ dense_3 (Dense)                      │ (None, 128)                 │          16,512 │
├──────────────────────────────────────┼─────────────────────────────┼─────────────────┤
│ stim_layer (Dense)                   │ (None, 64)                  │           8,256 │
└──────────────────────────────────────┴─────────────────────────────┴─────────────────┘
 Total params: 49,600 (193.75 KB)
 Trainable params: 49,600 (193.75 KB)
 Non-trainable params: 0 (0.00 B)

Model: "LNL_model"
┏━━━━━━━━━━━━━━━━━━━━━━━━━━━━━━━━━━━━━━┳━━━━━━━━━━━━━━━━━━━━━━━━━━━━━┳━━━━━━━━━━━━━━━━━┓
┃ Layer (type)                         ┃ Output Shape                ┃         Param # ┃
┡━━━━━━━━━━━━━━━━━━━━━━━━━━━━━━━━━━━━━━╇━━━━━━━━━━━━━━━━━━━━━━━━━━━━━╇━━━━━━━━━━━━━━━━━┩
│ input (InputLayer)                   │ (None, 64)                  │               0 │
├──────────────────────────────────────┼─────────────────────────────┼─────────────────┤
│ dense_1 (Dense)                      │ (None, 128)                 │           8,320 │
├──────────────────────────────────────┼─────────────────────────────┼─────────────────┤
│ dense_2 (Dense)                      │ (None, 128)                 │          16,512 │
├──────────────────────────────────────┼─────────────────────────────┼─────────────────┤
│ dense_3 (Dense)                      │ (None, 64)                  │           8,256 │
└──────────────────────────────────────┴─────────────────────────────┴─────────────────┘
 Total params: 99,266 (387.76 KB)
 Trainable params: 0 (0.00 B)
 Non-trainable params: 33,088 (129.25 KB)
 Optimizer params: 66,178 (258.51 KB)

Model: "full_model"
┏━━━━━━━━━━━━━━━━━━━━━━━━━━━━━━━━━━━━━━┳━━━━━━━━━━━━━━━━━━━━━━━━━━━━━┳━━━━━━━━━━━━━━━━━┓
┃ Layer (type)                         ┃ Output Shape                ┃         Param # ┃
┡━━━━━━━━━━━━━━━━━━━━━━━━━━━━━━━━━━━━━━╇━━━━━━━━━━━━━━━━━━━━━━━━━━━━━╇━━━━━━━━━━━━━━━━━┩
│ input (InputLayer)                   │ (None, 64)                  │               0 │
├──────────────────────────────────────┼─────────────────────────────┼─────────────────┤
│ stim_model (Functional)              │ (None, 64)                  │          49,600 │
├──────────────────────────────────────┼─────────────────────────────┼─────────────────┤
│ LNL_model (Functional)               │ (None, 64)                  │          33,088 │
└──────────────────────────────────────┴─────────────────────────────┴─────────────────┘
 Total params: 181,890 (710.51 KB)
 Trainable params: 49,600 (193.75 KB)
 Non-trainable params: 33,088 (129.25 KB)
 Optimizer params: 99,202 (387.51 KB)

Model: "stim_model"
┏━━━━━━━━━━━━━━━━━━━━━━━━━━━━━━━━━━━━━━┳━━━━━━━━━━━━━━━━━━━━━━━━━━━━━┳━━━━━━━━━━━━━━━━━┓
┃ Layer (type)                         ┃ Output Shape                ┃         Param # ┃
┡━━━━━━━━━━━━━━━━━━━━━━━━━━━━━━━━━━━━━━╇━━━━━━━━━━━━━━━━━━━━━━━━━━━━━╇━━━━━━━━━━━━━━━━━┩
│ input (InputLayer)                   │ (None, 64)                  │               0 │
├──────────────────────────────────────┼─────────────────────────────┼─────────────────┤
│ dense_1 (Dense)                      │ (None, 128)                 │           8,320 │
├──────────────────────────────────────┼─────────────────────────────┼─────────────────┤
│ dense_2 (Dense)                      │ (None, 128)                 │          16,512 │
├──────────────────────────────────────┼─────────────────────────────┼─────────────────┤
│ dense_3 (Dense)                      │ (None, 128)                 │          16,512 │
├──────────────────────────────────────┼─────────────────────────────┼─────────────────┤
│ stim_layer (Dense)                   │ (None, 64)                  │           8,256 │
└──────────────────────────────────────┴─────────────────────────────┴─────────────────┘
 Total params: 49,600 (193.75 KB)
 Trainable params: 49,600 (193.75 KB)
 Non-trainable params: 0 (0.00 B)

Model: "LNL_model"
┏━━━━━━━━━━━━━━━━━━━━━━━━━━━━━━━━━━━━━━┳━━━━━━━━━━━━━━━━━━━━━━━━━━━━━┳━━━━━━━━━━━━━━━━━┓
┃ Layer (type)                         ┃ Output Shape                ┃         Param # ┃
┡━━━━━━━━━━━━━━━━━━━━━━━━━━━━━━━━━━━━━━╇━━━━━━━━━━━━━━━━━━━━━━━━━━━━━╇━━━━━━━━━━━━━━━━━┩
│ input (InputLayer)                   │ (None, 64)                  │               0 │
├──────────────────────────────────────┼─────────────────────────────┼─────────────────┤
│ dense_1 (Dense)                      │ (None, 128)                 │           8,320 │
├──────────────────────────────────────┼─────────────────────────────┼─────────────────┤
│ dense_2 (Dense)                      │ (None, 128)                 │          16,512 │
├──────────────────────────────────────┼─────────────────────────────┼─────────────────┤
│ dense_3 (Dense)                      │ (None, 64)                  │           8,256 │
└──────────────────────────────────────┴─────────────────────────────┴─────────────────┘
 Total params: 99,266 (387.76 KB)
 Trainable params: 0 (0.00 B)
 Non-trainable params: 33,088 (129.25 KB)
 Optimizer params: 66,178 (258.51 KB)

